doodle/trained_network/doodle_ann_weights_100_2layers.pth (torch, 799478 bytes, 6 tensors)

fc1.weight f4 [200, 784]
000000 3e 96 01 3d d4 f2 9e 3d 76 1f 48 3d 6f b0 09 3d
       0.031637423 0.077611595 0.04885813 0.033615526
000010 c9 e2 ea 3c 81 af dc 3c 64 6d 60 bd b9 9d 47 bd
       0.028672593 0.026939156 -0.054791823 -0.0487344
000020 8d ec 22 bd 66 37 7f bd 07 48 3c 3c 72 c3 c5 bc
       -0.039776374 -0.06230869 0.011491782 -0.024141047
000030 1d 2f 11 bd 0d 77 3c 3d 4a 62 09 3c 27 1f 05 bb
       -0.03544532 0.046011973 0.00838525 -0.0020312758
000040 45 55 93 3d 13 2a 05 3d 10 6c 64 bc f4 56 ad bc
       0.07193998 0.03251083 -0.01394178 -0.021159627
000050 1a 6a 05 bd 55 53 bf bc c4 92 b4 bc 0e f0 1e bd
       -0.03257189 -0.023355165 -0.02204264 -0.038803153
000060 65 1b 93 3c 21 a8 83 bc ff a0 8b 3d de 2f b9 3d
       0.017957399 -0.016071381 0.06817817 0.09042333
000070 b6 87 84 3d 14 ab 13 3d 86 5f 9b 3b 05 e5 ef 3c
       0.06471197 0.036051825 0.004741612 0.02928401
000080 89 d3 73 bc 79 c5 7f bd d0 1e be bc f6 6c 9f bd
       -0.014881977 -0.062444184 -0.023208052 -0.077844545
000090 cc 46 90 bd 0f de af bc df bc a6 bc b6 0d 8e bc
       -0.070447534 -0.02146819 -0.020353733 -0.017340522
0000a0 07 07 d1 3b 48 3d 44 3c 3c 23 db 3c d9 c9 06 3d
       0.0063790116 0.011977501 0.0267502 0.03290734
0000b0 2f e7 ce 3c 2d 6f e6 bb ce dd 10 bd cb 26 41 bc
       0.025256721 -0.007032296 -0.03536778 -0.011789034
0000c0 a8 4e 99 bd dd 3a 7a bd c9 10 42 bd 02 3c a0 bd
       -0.074857056 -0.061091293 -0.04737929 -0.078239456
0000d0 00 0c 38 bd b4 75 c5 3b d6 36 a6 3c ae 55 95 3d
       -0.04493332 0.006025994 0.02028982 0.07291733
0000e0 3f dd 4e 3d 3b 89 1c 3b 42 1e 31 3c d3 d9 99 3c
       0.050503965 0.0023885507 0.010810437 0.018780624
0000f0 2c 63 05 bc 16 4e e3 bb 58 94 92 bd ca 2a ec bc
       -0.00814132 -0.006936799 -0.071572006 -0.028828997
000100 6c 75 46 bd 99 c0 96 bc 11 4d 96 bd a1 d9 86 bd
       -0.048451826 -0.018402385 -0.07338918 -0.06584478
000110 a5 7b 0b bd 90 2b b3 bc 77 af 02 bd 7b 84 b8 3b
       -0.034053463 -0.021871358 -0.031905618 0.0056310273
000120 43 b3 a7 bc f8 c9 22 bc 5c cb ef 3a 44 b5 5d bd
       -0.02047122 -0.009935848 0.0018294859 -0.054127946
000130 d0 69 a5 bd f6 16 2f bd 0e f9 de bd a6 8a 90 bd
       -0.08076823 -0.042746507 -0.10887347 -0.07057695
000140 87 6b 3d bd 6f 72 0f bd ca 77 8e 3c f3 a3 74 3d
       -0.046245124 -0.03502124 0.017391104 0.059726667
000150 3e 34 9c 3c 60 80 04 3c 62 93 1a 3a de a0 f2 bc
       0.01906788 0.008087248 0.00058965955 -0.029617723
000160 ba e2 82 bc 2b aa 50 bd 16 38 e3 bc af 35 1a bd
       -0.015977252 -0.050943535 -0.027736705 -0.037648853
000170 1e d7 8b bd 04 c8 a6 bd b7 96 1b bd c6 64 23 bd
       -0.0682814 -0.08143619 -0.03798553 -0.039891027
000180 3a 77 7a bd 03 4a 54 bc 14 e3 b1 bc ad 4f 40 bd
       -0.06114886 -0.012957099 -0.021714725 -0.046950985
000190 4a 43 34 bd d9 23 6c 3b 42 52 96 bb 0f 7c 9d bc
       -0.044009484 0.003603211 -0.0045874426 -0.019224195
0001a0 c7 2e 96 bd 93 e0 90 bd dc 23 7a bd 7f 6d b9 bd
       -0.07333141 -0.07074084 -0.061069354 -0.09054088
0001b0 b8 4a 9a bd 55 88 20 bd 84 c4 04 3d 25 9c 4d 3d
       -0.07533783 -0.039192516 0.032413974 0.05019774
0001c0 9d b5 f1 bc 0c 64 b1 bc ac 4c 2b bb e6 bc 93 bc
       -0.029505545 -0.021654151 -0.002613823 -0.01803441
0001d0 96 91 09 bd fe 68 11 bd 15 23 53 bd 53 f1 a4 bd
       -0.033586107 -0.03550052 -0.05154713 -0.080538414
0001e0 04 1a 53 bd 72 22 69 bd 92 be 99 bd 55 ca 94 bd
       -0.051538482 -0.056917615 -0.075070515 -0.07265154
0001f0 8d 5d 97 bd 75 a7 10 bd 31 6f 4c bd 45 7c 39 bd
       -0.0739089 -0.03531595 -0.049910728 -0.04528453
000200 bc d5 95 bd d1 bc f2 bb 4f 97 d7 bc 71 d5 7f bd
       -0.07316157 -0.0074077626 -0.026317267 -0.062459413
000210 9b 6e ab bd cf b4 90 bd a0 ba 76 bd fa 2e e9 bc
       -0.08370706 -0.070657365 -0.060236573 -0.028464783
000220 b3 3e 85 bd c9 bd 95 bd 17 7f 0a bd a4 bc ab 3c
       -0.065060996 -0.07311589 -0.03381261 0.020963974
000230 62 1e a2 bd 0c 51 9b bd 4e 16 4d bd 89 d3 37 bd
       -0.07915951 -0.07583818 -0.0500701 -0.04487947
000240 da 8a 9f bc d5 40 4a bd c5 64 96 bd 26 a0 7a bd
       -0.01947539 -0.049378235 -0.07343439 -0.061187886
000250 e2 99 a8 bd c8 36 bc bd eb c5 f3 bd bb b0 90 bd
       -0.08232476 -0.09190136 -0.11902984 -0.07064959
000260 71 c6 f3 bd 5d a2 e0 bd a5 64 91 bd ae 8b 45 bd
       -0.11903084 -0.10968468 -0.070992745 -0.048228912
000270 d7 25 73 bd a8 e1 97 bd 0b 95 77 bd 3e 15 15 bd
       -0.05936226 -0.074160874 -0.060444873 -0.03639721
000280 d9 f9 33 bd 94 16 83 bd 42 92 26 bd 8e b3 8b bd
       -0.043939445 -0.06400791 -0.040666826 -0.06821357
000290 1d e9 8d bc cf f4 87 bd 40 8f a7 bb 6c c6 d6 3c
       -0.017323071 -0.066384904 -0.0051135123 0.026217662
0002a0 9f 60 e3 bc ff 78 c8 bc 3a 1b 4b bd 74 d1 86 bd
       -0.027756033 -0.024471758 -0.049586512 -0.06582919
0002b0 9f 11 5e bc 8f af 1a bd c7 c6 00 bd 7d 29 b6 bd
       -0.013554006 -0.037765082 -0.03143957 -0.08894632
0002c0 59 52 86 bd 90 67 d7 bd cc 02 ee bd 9e 33 7f bd
       -0.06558675 -0.105178 -0.11621627 -0.062305085
0002d0 1e c8 a2 bd da 81 b4 bd 9c ee c5 bd 5f 64 23 bd
       -0.079483256 -0.0881383 -0.09664652 -0.039890643
0002e0 60 02 44 bd 5a be 5a bd 84 3c 90 bd 35 e1 31 bd
       -0.047853827 -0.05340419 -0.070427924 -0.043427665
0002f0 dd 20 04 bd 5f be 01 bd 9c 7d 2e bd 7c a1 84 bd
       -0.032257903 -0.031675693 -0.04260026 -0.06476113
000300 13 e4 80 bd 93 af a6 3b 21 22 39 bd 4d 0e 05 3d
       -0.06293502 0.005086848 -0.045198563 0.03248434
000310 cb 8c e1 bc 7c 80 7c bd d4 ec 82 bd d5 6b dd bb
       -0.027532956 -0.06164597 -0.06392828 -0.0067572393
000320 f3 29 53 bd ed 0a 35 bd 76 d9 a7 bd 43 44 5e bd
       -0.051553678 -0.044199873 -0.08195774 -0.05426432
000330 2c c1 ec bd c3 c6 6a bd 1c e9 c3 bd ed 2d c1 bd
       -0.11560282 -0.05731846 -0.095659465 -0.09432588
000340 df 09 b1 bd eb 44 53 bd fc 4f 15 bc 98 50 04 bd
       -0.08644461 -0.051579397 -0.009113308 -0.032303423
000350 ef de 5a bd ef fc 09 bc 30 1f 71 bd 6f 1f cc bc
       -0.053435262 -0.0084221205 -0.058867633 -0.024917332
000360 6e b7 38 bd f6 c4 98 bd b0 ea 14 bd 2f d2 aa bc
       -0.045096807 -0.07459442 -0.036356628 -0.020852176
000370 6d 33 5c bc 62 21 09 bd 76 c6 db bc 37 df ca bc
       -0.013439995 -0.033479102 -0.026828032 -0.02476464
000380 d3 66 28 bd de 90 24 bc b7 0f 4c 3c e1 32 48 bc
       -0.041113686 -0.010044305 0.012454919 -0.012219162
000390 1f e9 96 bc e4 72 d5 bb 67 30 9f bd 95 32 65 bd
       -0.018421708 -0.00651394 -0.07772904 -0.055956442
0003a0 44 fa 68 bd 91 27 ad bd 6f 98 4a bd 6e ac 5f bd
       -0.056879297 -0.08454812 -0.04946178 -0.0546078
0003b0 e1 ec d6 bc 79 38 8e ba 85 6f 28 3d 9a 2e 32 bc
       -0.026236 -0.001085057 0.04112198 -0.0108753685
0003c0 6e a6 7b bc 51 b6 15 bd 17 47 0d bd 3b d6 ac bc
       -0.015359504 -0.036550824 -0.034491625 -0.021098247
0003d0 df 90 8c bc 17 17 4e bc 6e 72 65 bd b5 a7 29 bd
       -0.017158924 -0.012578747 -0.05601733 -0.041419704
0003e0 18 76 e5 bb 82 93 de 3c 8f 8f e4 3c 38 b3 16 3d
       -0.0070026033 0.027169947 0.027900485 0.03679201
0003f0 6d 91 7d 3c 28 dd 18 bd 10 59 47 3c c4 15 7e 3c
       0.015476567 -0.037320286 0.01216723 0.015508119

fc1.bias f4 [200]
000000 95 a6 8a 3d c8 62 7d 3d 0c 8f 17 3d cc 39 a3 bc
       0.06770054 0.061861783 0.037001655 -0.01992502
000010 06 56 52 bd f0 d0 9e bd ca c8 b9 3d 09 35 cd bd
       -0.05135157 -0.077546954 0.090715006 -0.10019881
000020 7e 07 b4 bc 06 57 38 3c 99 b1 a6 3d 79 bc b7 bd
       -0.021976229 0.011251217 0.08139343 -0.08971495
000030 c1 54 9d bd f4 f3 b8 3d f7 21 a6 3d e9 82 55 bc
       -0.07682181 0.09030905 0.08111947 -0.0130317
000040 11 59 d5 3d 12 9b dd 3c 88 1e 68 bc e4 80 11 bc
       0.10417379 0.027051482 -0.0141674355 -0.008880828
000050 38 db e5 3b 49 df aa 3d 1e 33 34 3c 19 18 6a bd
       0.0070146583 0.083433695 0.010998515 -0.057151888
000060 a7 53 3c bd ff 2f 83 bd e9 b9 8a 3d aa 09 aa 3d
       -0.045978215 -0.06405639 0.06773741 0.083026245
000070 70 a0 fd 3c 6c 6c 34 bd 2f e8 b4 bd 38 3b 96 3d
       0.030960292 -0.04404871 -0.08833348 0.07335514
000080 3f f8 6c 3d 2f a2 e4 3d da a2 d1 3d d4 b0 4e bc
       0.057853933 0.111637466 0.102361396 -0.012615401
000090 40 59 95 3c d9 96 49 bd 54 ec 4a 3d 53 61 a5 bd
       0.018231034 -0.049216125 0.049541786 -0.08075204
0000a0 73 eb 83 3d 4a cc 10 bd 02 d9 9a 3c 58 f6 35 bd
       0.06441393 -0.035351075 0.018902306 -0.044424385
0000b0 3c ce 62 bd 42 97 99 3b e5 dd 13 bd 88 91 c2 3d
       -0.05537246 0.004687221 -0.036100287 0.09500414
0000c0 3d fa df 3d 99 a4 e6 3c ef f0 81 bd f9 d6 c7 bb
       0.10936401 0.028154658 -0.063447826 -0.006098625
0000d0 38 f0 8f ba 83 ca b9 3d 51 b0 9a 3d 0e 27 5b 3d
       -0.0010981625 0.09071829 0.07553161 0.053504042
0000e0 1f fc c0 3d a4 b9 a0 bd 13 49 50 bd 05 af f4 3c
       0.09423088 -0.07847908 -0.05085094 0.029868612
0000f0 67 30 19 bb 20 9a 7d bc c7 71 eb 3d f8 df da 3d
       -0.0023374797 -0.015478641 0.11496311 0.1068725
000100 22 74 ce bc 0f 54 54 3d aa a6 7a bd 77 a0 ac 3d
       -0.02520186 0.051837977 -0.0611941 0.08429044
000110 f9 cf dd bc 71 c1 7a 3d 6a 04 83 bd 92 78 60 3d
       -0.027076708 0.061219636 -0.06397326 0.054802485
000120 70 9b 89 bd cd 20 6e bc c8 3a ad bc 41 d5 d3 bc
       -0.067191005 -0.0145341875 -0.021146193 -0.025858523
000130 6f db ae bd 6d d2 d7 3d 17 9b 98 3d f6 3d 8a bd
       -0.085379474 0.105381824 0.07451456 -0.06750099
000140 1c 2b 8f bd 57 1c 47 3d 6c e4 9e 3c ec a0 55 3d
       -0.06990644 0.04861101 0.01939603 0.05215542
000150 fa 99 42 bc 05 1b 48 bd 72 23 c7 3d 0d 11 30 3c
       -0.011877531 -0.048853893 0.097235575 0.010746253
000160 44 35 cc bc 79 fe c3 bd 27 54 85 bd 78 ba 73 3d
       -0.024927743 -0.09570021 -0.065101914 0.059504002
000170 89 a2 e3 3d 68 06 9c bc ef 28 48 bd e2 2f 93 bd
       0.111149855 -0.019046023 -0.048867162 -0.07186867
000180 36 18 47 3d db f1 bf 3d c8 4d 5c bb 03 fc a3 3d
       0.048607074 0.09372302 -0.0033615697 0.08007052
000190 03 b5 24 bd 77 b3 7f 3d a2 ed 6f 3d 8e b7 9d 3d
       -0.04021169 0.06242701 0.058576234 0.07701026
0001a0 5c 95 13 bb ba 8f b5 bd 79 03 8c 3c 16 99 53 3d
       -0.0022519445 -0.08865304 0.0170915 0.051659666
0001b0 ab 2f 60 bd b7 d1 67 bd 27 ed 04 bd 4f a8 24 3c
       -0.05473296 -0.056596484 -0.03245273 0.0100498935
0001c0 2b ea b0 ba 28 09 27 3d 68 f3 d5 3d 7f 34 c1 bb
       -0.0013497522 0.040780216 0.10446817 -0.0058961506
0001d0 99 20 06 bd 29 bf 8e 3d c0 4b 94 3d 6c 27 93 bd
       -0.03274593 0.06970055 0.07241011 -0.071852535
0001e0 03 4a 86 bd d3 7d 27 3d cb 56 7b 3d 7c 02 87 3d
       -0.06557085 0.04089148 0.06136207 0.06592271
0001f0 96 c1 5e 3a 15 6d 67 bd 23 f4 1c 3c 32 a8 16 bd
       0.00084974745 -0.056500513 0.009579691 -0.036781497
000200 7e 22 3d bd 2c 60 a8 ba 6b 49 02 3d cb c6 30 3d
       -0.046175472 -0.0012846044 0.031808298 0.043158334
000210 7d 4d 91 bd 0c d8 ed 3d fc d2 b3 bd 3f 4f 59 3d
       -0.07094858 0.11613473 -0.087804765 0.05305409
000220 73 3c b4 bd af b1 44 3d 0d ac d0 3d 57 0f 95 bd
       -0.08800592 0.048021015 0.10189066 -0.072783165
000230 fb d6 33 bd f8 d4 13 3d 3e 80 6c bd e2 33 83 3d
       -0.043906193 0.036091775 -0.05773949 0.0640638
000240 ce cb 10 3d cc 1a 64 3d cd f8 af 3d 0e 82 03 ba
       0.035350613 0.055689618 0.08592377 -0.0005016633
000250 fe 3d 32 bd 0c e1 9e 3d f3 67 8a 3d 98 fe ca 3d
       -0.04351615 0.07757768 0.06758108 0.09911841
000260 10 45 da 3c d5 21 a0 3c f6 bf 46 3d 8e eb 91 bb
       0.02664426 0.019547382 0.048522912 -0.004453129
000270 6d 73 9a 3d 4b 0a 9a 3d 74 68 91 3d 17 de 4c 3d
       0.07541547 0.075214945 0.07100001 0.05001649
000280 57 df 84 3c fb cd 86 3d bb 4b bf 3d 9d 09 e9 3d
       0.016219778 0.065822564 0.09340616 0.11378787
000290 65 a1 45 3d ec 08 31 3d f2 86 a7 3d fa 33 b8 3d
       0.04824962 0.0432214 0.08180036 0.08994289
0002a0 c9 3a 62 3d 99 af a1 3d 70 ac c4 3c 16 6f 55 3c
       0.055231843 0.07894821 0.024008006 0.013026973
0002b0 76 63 9f 3d c2 da bf bd b7 5d bb 3d 33 d3 96 3b
       0.077826425 -0.093678966 0.09148734 0.0046028136
0002c0 58 55 d0 3d bc 79 03 bd 16 17 47 3d ae c2 64 3d
       0.10172528 -0.032098517 0.048606 0.055849724
0002d0 dc 08 a3 3d 0b 3b ad bc 2a 27 a3 3d 9c 6a 83 3d
       0.07960674 -0.021146318 0.07966454 0.064168185
0002e0 af 3b b0 3c d5 c1 a7 3c 84 4f f0 3d b9 35 ad bd
       0.021512834 0.020478169 0.117339164 -0.084575124
0002f0 8e 6d 08 3d a1 b5 8f 3d e1 4a 6e 3c d0 06 50 3c
       0.033307604 0.07017065 0.01454422 0.012696937
000300 f9 07 08 bd 99 62 9f 3d d9 e8 aa 3a 71 75 3c 3d
       -0.03321073 0.07782478 0.0013039365 0.04601044
000310 5c cf cb 3c ed 1a 99 bd 83 31 ee 3b 20 54 1d bd
       0.02487915 -0.07475839 0.007269086 -0.038410306

fc2.weight f4 [200, 200]
000000 f7 9d 51 3d 21 44 62 3c 51 a0 76 3d 12 81 91 3c
       0.051176038 0.0138101885 0.060211483 0.01776174
000010 1b 57 1d 3d c6 c4 c4 bc 05 d8 c0 3d 9b 3f c5 bc
       0.03841315 -0.02401961 0.094162025 -0.024078181
000020 19 74 d7 ba 9b 2f 0b bc 96 da 99 bd 55 20 92 3d
       -0.0016437798 -0.008495237 -0.07512395 0.07135073
000030 ae 79 a2 3d e7 3f f9 bc 37 6c 75 3d 38 f5 03 bd
       0.07933365 -0.030425979 0.059917655 -0.03221628
000040 43 6c c0 bd 23 65 90 bd 65 88 07 bd f3 26 4b bd
       -0.09395649 -0.0705054 -0.03308906 -0.04959769
000050 82 02 ad 3d 76 ae a0 3d 3f 83 93 3d d4 fa 25 3d
       0.08447744 0.07845776 0.072027676 0.04052241
000060 ce e8 87 3c a6 47 d3 bc 9d c0 c2 3d b0 20 83 3d
       0.016590502 -0.025791 0.09509394 0.06402719
000070 3c 55 ba b9 ef 61 02 bd fe a3 d8 bc 4e f3 53 3d
       -0.0003554019 -0.031831678 -0.026445385 0.051745705
000080 7d e0 9e bc 06 07 a7 bd ea d6 b8 3d 74 7f b9 bc
       -0.019394154 -0.081556365 0.090253666 -0.022643782
000090 fb e7 1e 3d ee 1e 94 bc 1a f1 9c 3d f4 29 0c bb
       0.038795453 -0.018081155 0.07663174 -0.002138731
0000a0 69 16 01 bd 85 a3 96 bc 1a 47 76 bd 1b 19 12 3d
       -0.031515513 -0.018388519 -0.0601264 0.035668474
0000b0 e3 c5 32 3d 0f d3 8c 3d e9 7f 05 bd 12 56 3e 3c
       0.04364575 0.06876194 -0.032592688 0.0116172
0000c0 86 a2 a4 3d fb 38 48 3c e4 8c a9 3d 45 32 3c bd
       0.080388114 0.012220616 0.08278826 -0.04594638
0000d0 22 20 93 3c 09 b0 95 3c 17 47 50 3c 3b a9 8b bd
       0.017959658 0.018272417 0.012712262 -0.068193875
0000e0 98 6b 85 bc ee a6 25 3d ff db 3c bd 14 5d a0 3c
       -0.016286656 0.0404424 -0.046108242 0.019575633
0000f0 26 37 4b 3d 8f 66 36 bd 48 be 84 3c ea bc 1f bd
       0.04961314 -0.0445314 0.016204014 -0.038998522
000100 97 1f 51 bd bb 00 20 bc b3 9b 85 bc d6 1e 59 bc
       -0.051055517 -0.009765799 -0.016309595 -0.013251981
000110 6f 65 a9 3c b5 f8 b5 3d 07 87 cd bc ce e8 3d bd
       0.02067825 0.08885328 -0.0250888 -0.046364598
000120 d6 3e c3 3d a0 f3 6f bc 40 46 4b bd cb a4 20 3d
       0.095334694 -0.014645487 -0.049627542 0.03921966
000130 89 c2 db 3c 51 7d e9 bc ce 27 8a bd a6 a7 5d bd
       0.02682616 -0.028502138 -0.067458734 -0.05411496
000140 43 1c 29 bd 52 85 5b 3d a0 fa 4a bd f3 48 92 bd
       -0.041286718 0.05359394 -0.04955542 -0.0714282
000150 b4 90 ee 3c 08 0a 6e 3d 97 fb 16 3e b9 53 43 bc
       0.029121734 0.058115035 0.14744411 -0.0119218165
000160 9b 62 93 3c 5f e6 13 3d 15 30 4e 3c fa 4f 66 bd
       0.017991355 0.03610837 0.012584706 -0.056228615
000170 52 8a 88 3d 40 cd 3f 3d 48 13 3f bd f5 ea 10 3d
       0.066670075 0.0468266 -0.046649247 0.035380322
000180 fc d8 61 3b cb 95 28 3d e8 e3 37 3d 3a ec 60 3c
       0.0034461608 0.04115848 0.044895083 0.013728196
000190 51 5e e5 3c 60 00 62 bd 79 23 09 3e f5 38 78 3c
       0.027999075 -0.05517614 0.13392438 0.015150298
0001a0 bd 03 63 bb 45 b4 04 3b b8 50 fa 3c 0a 8e bd 3c
       -0.003463968 0.002024905 0.030556068 0.023139019
0001b0 2b 68 d5 3c 5e cd d7 3b d0 ff 4f bd 7e 9f c5 3a
       0.026050648 0.006585761 -0.05078107 0.001507744
0001c0 2b d9 7d 3d 8a 01 79 bd c0 91 81 37 51 b5 d8 3b
       0.061974686 -0.060792483 1.5445868e-05 0.0066134115
0001d0 c4 e6 ce bb ef 37 5b 3d 3e 1c 22 3d ec 69 45 bd
       -0.0063141305 0.05352014 0.039577715 -0.048196718
0001e0 0a 26 a6 3c a2 85 b3 3d ee 45 33 bd d9 73 e0 3c
       0.02028181 0.08765723 -0.043767862 0.02739899
0001f0 1e c2 19 bd c0 a5 7d 3d 8c a4 c7 3c a9 d3 41 3c
       -0.03753864 0.06192565 0.024370454 0.011830249
000200 eb cf a9 bc 62 e8 a9 bb 82 60 9b 3c 15 02 15 bd
       -0.020729026 -0.005185173 0.018966917 -0.03637894
000210 40 fa 0d 3d cf 54 cc 3d 02 ba 3f 3c af 9f 4a bd
       0.034662485 0.099771135 0.011702063 -0.049468692
000220 0e 9c 72 bd 69 4a a5 3d f4 4e 26 bd 6a e1 6d bc
       -0.059230857 0.08070833 -0.04060264 -0.014519075
000230 29 3e dd bc 66 a6 2f 3b e0 3b 91 3c e0 df 7b 3d
       -0.02700718 0.0026802062 0.017728746 0.0614928
000240 76 51 2d bd b0 b7 b9 3d 76 a9 42 3d e8 5a 87 ba
       -0.042314015 0.09068239 0.04752489 -0.0010326775
000250 7f 66 25 3d c5 83 bf 3d b5 05 6d 3b 4f 10 63 bd
       0.04038095 0.09351305 0.0036166732 -0.055435475
000260 98 3f 70 3c 65 43 c7 3d f4 b0 ea 3c 40 15 88 3d
       0.014663599 0.09729651 0.028648831 0.06644678
000270 2e f3 f7 3c 64 57 2a 3d cb b9 ec bc 2d 49 04 3c
       0.030267324 0.04158725 -0.028897187 0.008074087
000280 90 88 d0 3d 55 fc 81 bc 47 38 2e bd 75 56 80 3c
       0.10182297 -0.015867392 -0.04253414 0.015666226
000290 c6 ea f0 ba f6 70 94 bd 45 1d 3b 3d 7c da 08 3e
       -0.0018380515 -0.07248108 0.04568221 0.13364595
0002a0 18 d7 8d bc 6f bb 80 3d ba 56 b6 bc 03 1c b3 3c
       -0.017314479 0.0628575 -0.022258151 0.021863943
0002b0 13 da bc 3d ad d8 04 3d d7 35 2a bd 8c 0f 8d bc
       0.09221282 0.0324332 -0.041555252 -0.017219327
0002c0 bb 27 c4 3c 97 25 63 3d 5e 62 fa 3c e7 65 57 3d
       0.023944726 0.05545577 0.030564483 0.052587416
0002d0 69 b9 e9 bc e0 ec 0c bc 38 d5 8c 3d 41 57 13 3d
       -0.028530793 -0.008601397 0.06876606 0.035971884
0002e0 5e 27 10 bd 7c ba 79 3c d9 00 8d 3d d1 9e 26 3b
       -0.035193793 0.015242215 0.06884927 0.0025424252
0002f0 6b 66 3a 3b f2 9f 89 3d c8 cd 8a bc 3b 42 f6 bb
       0.0028442394 0.0671996 -0.016943827 -0.0075152195
000300 fa b4 50 bd 00 41 ba 3b be f4 2d 3d cf 6d d0 bc
       -0.050953843 0.005684018 0.042469732 -0.025442986
000310 2a ab 9c 3b 83 0d 41 bd 3b 7a 12 bc 60 02 ed bc
       0.0047811465 -0.047132026 -0.008940275 -0.028931797
000320 b2 13 e0 3d 6f 1c b4 3c 59 1f ec bc cd 25 10 3e
       0.109412566 0.021986214 -0.028823541 0.1407692
000330 50 2b 3e 3c 7f 1c 3c bd c4 91 ba bd 00 4b f8 bd
       0.011607006 -0.045925613 -0.09109834 -0.1212368
000340 8c 6e 49 3d 0e 8c e6 3c bc d8 ee bd 01 f8 24 3d
       0.04917769 0.028142955 -0.116624326 0.040275577
000350 d5 77 65 bd be c8 35 bd c7 26 97 3d 40 0d 05 3c
       -0.056022484 -0.044380896 0.07380443 0.008120835
000360 43 74 a8 3d 5d 77 54 3c b9 e2 08 3d ad ea 73 bd
       0.082253 0.012967912 0.033419345 -0.059549976
000370 4b 97 da bd 70 de 8c bc bc da db bb 61 a3 41 bd
       -0.10673388 -0.01719591 -0.006709425 -0.04727495
000380 a7 c8 4a bd 87 d0 b6 3b a8 f9 05 be 33 29 ed bc
       -0.049507763 0.0055790576 -0.13083518 -0.02895031
000390 57 97 9a bd 38 48 96 3d 22 0c 21 bd 1c 9a 86 bd
       -0.07548397 0.073379934 -0.03931821 -0.06572363
0003a0 f3 70 0c 3d d0 10 4e bd ae b0 6b 3d f4 e7 cc bd
       0.034287404 -0.050309002 0.05754154 -0.10005179
0003b0 be 1f dc 3d 68 91 08 bd f1 53 d9 3b 91 a2 cd 3c
       0.10748242 -0.033341795 0.006632321 0.025101932
0003c0 bd c3 27 bd 0f 55 57 3d 22 20 48 3d 43 90 3c 3d
       -0.040958155 0.052571353 0.04885877 0.046036016
0003d0 7b 31 36 3d 06 be c4 bc 23 04 2b 3d 40 ea 42 3d
       0.044480782 -0.024016391 0.041751992 0.04758668
0003e0 0c 42 dd bb bb 2f 5f 3c 4f 21 a5 3c 82 64 16 bd
       -0.006752258 0.01362222 0.020157484 -0.036716945
0003f0 3c 4c 93 bd a7 d2 9c 3d e4 e5 b3 bc 27 e8 dd bc
       -0.07192275 0.07657366 -0.021960206 -0.027088238

fc2.bias f4 [200]
000000 fa cd 10 bc 3a 0c 22 3c 3e 53 a8 3d 38 8f 0d 3d
       -0.008838171 0.00989061 0.08219002 0.034560412
000010 a9 b7 7a 3d 2d ea b1 bd 2d 4d ec bb d7 5a f7 3d
       0.06121031 -0.086872436 -0.0072113485 0.12077873
000020 4e e1 a4 bc fd 82 56 bd 17 ae c9 3d 5f 18 6a 3d
       -0.020126965 -0.052371014 0.09847658 0.05715215
000030 92 93 3b bd 8e c9 f6 3d a5 ae 92 bb 57 66 19 bd
       -0.04579503 0.12050162 -0.0044763857 -0.037451115
000040 fe ea a5 bd d2 6a 0b 3e cc c9 96 3d 4e 4a e5 bb
       -0.08101462 0.13614967 0.073627084 -0.006997383
000050 dc f4 95 3c 6b ae 4d bc 41 4b a2 3d 1a b4 69 bd
       0.018305235 -0.0125537915 0.0792451 -0.057056524
000060 34 42 d7 3d 5c 24 9e 3d fe ec da bc c4 4a c8 bd
       0.10510674 0.07721779 -0.026724335 -0.097798854
000070 45 00 0d 3c 86 f3 22 bb fc 4b 0f 3d c1 6f a0 bc
       0.008606021 -0.002486439 0.034984574 -0.019584538
000080 c0 dd 13 3e 30 8d d1 3a a5 da 99 3d a7 8c 15 bd
       0.1444006 0.0015987512 0.07512406 -0.03651109
000090 04 66 c7 bc d3 3b 44 bd 26 a4 d4 bb 72 bf ab bd
       -0.024340637 -0.047908615 -0.0064892946 -0.08386125
0000a0 d2 64 12 3c e1 00 11 3d 3a e5 ea bd fa 71 0b bd
       0.00893517 0.03540123 -0.11469503 -0.034044243
0000b0 42 48 70 3c cc 94 54 bc fc b9 56 3c 6b 1b 44 3d
       0.014665665 -0.012974929 0.013105866 0.04787771
0000c0 bb 2d 6a 3d c4 a9 bc 3c a1 01 39 3d 43 33 79 bd
       0.05717252 0.02303017 0.04516757 -0.060839903
0000d0 7c 9a 92 bd 24 f9 36 38 ed 1d 8c bd 8c 1f a6 3d
       -0.07158372 4.362421e-05 -0.068416454 0.08111486
0000e0 24 63 82 3d 6b f9 af bd 39 b1 f9 bd eb 26 ee 3b
       0.06366566 -0.085924946 -0.12192006 0.007267823
0000f0 3a ca 67 3d c1 47 03 bd 90 a7 06 be 22 f7 fb 3d
       0.056589343 -0.03205085 -0.13149858 0.12302996
000100 33 dc 27 bd 08 89 ea bc 1d 2d 6a bc 75 fa 86 bd
       -0.040981483 -0.028629795 -0.014292982 -0.0659074
000110 5c b1 ab bd 6e 24 b9 3d e5 3f 62 3d 35 20 d1 3d
       -0.08383438 0.090401515 0.055236716 0.10211221
000120 45 ff 07 bd 3c e0 af 3c 15 bc da bd d8 54 40 3c
       -0.03320243 0.021469228 -0.10680405 0.011738978
000130 15 78 d2 bd 90 71 56 bd 75 85 66 3a 7e f1 9e bd
       -0.1027681 -0.052354395 0.00087936904 -0.07760905
000140 f7 3c 3e 3d d4 89 7b 3b 17 d2 d1 bc f2 05 fd bd
       0.04644486 0.0038381713 -0.025612874 -0.123546496
000150 14 fb 78 bc a8 2c 2b 3d b4 fc 93 3c da ef 2e 3d
       -0.01519658 0.041790634 0.018064834 0.04270921
000160 62 4f 90 bd 22 01 7c bc a9 df 76 3d da 6e 1c 3c
       -0.07046391 -0.015381129 0.060271893 0.009547913
000170 ec f6 3a bc 83 8d a8 bd e5 af 6f bd 83 14 10 3c
       -0.01141141 -0.08230116 -0.058517355 0.008793953
000180 a5 b2 e5 3b 0b 33 87 bd 68 8f bb 3d 04 63 28 3d
       0.0070098215 -0.066015325 0.09158212 0.041110054
000190 7a ca c4 3d c8 ea e8 bc 43 92 74 bb 25 eb 94 bd
       0.09608932 -0.028432265 -0.0037318624 -0.07271413
0001a0 9f 6a 19 bd e9 11 2f 3d 09 4f 17 3d 37 a8 2f 3d
       -0.037455197 0.04274169 0.03694061 0.04288503
0001b0 07 63 df 3c fd 11 a1 bd 82 7e 99 3c 8d b1 f3 bc
       0.0272689 -0.07864759 0.018737081 -0.029747749
0001c0 75 e0 90 bd 96 61 08 bd 8b 8a 96 3c 1a e3 95 3d
       -0.07074062 -0.03329619 0.01837661 0.07318707
0001d0 a6 af 7f bd 00 84 bc 3d 2f 0b 15 bb ea 4e 71 3c
       -0.06242337 0.092048645 -0.0022742262 0.014728287
0001e0 c3 a4 8b bd 39 a6 3e 3d 15 0c 2d 3d aa 54 d1 bc
       -0.06818535 0.04654524 0.04224785 -0.025553066
0001f0 da b8 dc bd d9 07 42 3c e2 08 f4 3c a0 83 a7 3d
       -0.10777445 0.011842691 0.029789392 0.08179402
000200 02 35 5f 3d cf c2 83 bd 6a 89 81 bc d1 ce 65 bd
       0.05449391 -0.06433641 -0.015812594 -0.05610544
000210 bb 7c e2 bd ea fb 58 3d 96 b8 3d bd a0 0a f6 bc
       -0.11058947 0.05297462 -0.046318613 -0.030034363
000220 ee 7f 7b 3c 0c 7e 71 3c 7e 8e 08 3e 18 e7 bc bd
       0.015350325 0.014739525 0.13335606 -0.09223765
000230 8c 0c dd 3c 23 ff fc bd 06 f8 a6 3d d7 66 11 bd
       0.026983522 -0.12353351 0.081527755 -0.035498466
000240 7e 11 ba 3c 5a cb ff 3a 6f 7e 36 bc d5 ff 81 bd
       0.022713419 0.001951556 -0.011138543 -0.06347624
000250 39 76 ec bd 19 98 25 3d ee 36 f6 39 7d bb 69 bd
       -0.11545987 0.040428255 0.00046961702 -0.05706357
000260 06 31 55 bc 7d 52 8c 3d 26 b2 f4 bd a7 83 aa bb
       -0.013012176 0.06851671 -0.119480416 -0.0052036825
000270 3f df 87 bc 4f 45 fe 3d 04 ac cc 3c 41 d4 21 3c
       -0.016585944 0.12415563 0.024984367 0.009877265
000280 ef ac cc 3d 65 aa 1f 3d 72 73 6e bc b4 18 b7 bc
       0.09993922 0.03898086 -0.0145538915 -0.022350647
000290 37 a3 8d 3d 96 e4 c9 bc 08 db 38 bd ba 1c 62 bc
       0.069158964 -0.024645131 -0.04513076 -0.013800794
0002a0 8d 4c 88 3d a8 2a a6 3c 23 42 3e bd f5 0f b4 bd
       0.06655226 0.020284012 -0.04644979 -0.08792106
0002b0 22 ca e7 3d ab dd f0 3d cc 4d 4b 3c 1c 51 cf bd
       0.11317851 0.1176103 0.012408685 -0.10122892
0002c0 64 76 40 3b a7 94 9e bd 63 f4 22 bd 7b 71 c3 bd
       0.0029367441 -0.07743197 -0.039783847 -0.09543129
0002d0 d3 8a 04 3e 98 2f 67 bd be 85 6d 3d 6b 06 0e bc
       0.12943582 -0.056441873 0.057988875 -0.008668522
0002e0 18 a2 5b bd d6 86 cd 3d ab ba 1b bd 2b d6 03 3d
       -0.05362138 0.100354835 -0.038019817 0.03218667
0002f0 34 1c fa 3c 9c 10 1a 3e d7 cc ee bc 44 ea 6d 3d
       0.030531026 0.15045398 -0.02915041 0.05808474
000300 03 2e e5 3d 0c 74 e5 3d de 4c 22 bc d2 06 2c 3d
       0.11190417 0.11203775 -0.009906022 0.04199869
000310 3e 9b bd bd 78 85 21 3d e5 11 d0 bd 78 06 05 3d
       -0.09258126 0.039433926 -0.10159663 0.032476872

output.weight f4 [10, 200]
000000 ef af d3 3c 69 3b 9e 3c e9 04 80 3d 6a ac 92 bd
       0.025840728 0.019315438 0.062509365 -0.071617916
000010 a4 15 b5 3d 84 cb 42 3d e1 07 bf bc a0 5a c4 bd
       0.08842018 0.04755737 -0.023319187 -0.09587598
000020 8c b4 07 3d f9 a8 27 bd 30 48 b6 3d a6 c2 e0 3d
       0.033131167 -0.04093263 0.089004874 0.10974626
000030 6a 30 fb bc 76 9e fd 3d 99 48 dc 3d 81 25 e8 3a
       -0.030662734 0.1238374 0.107560344 0.0017711372
000040 fb 25 24 bd 41 14 f5 3c d8 91 f3 bb 50 08 82 3d
       -0.040075283 0.029916884 -0.0074331574 0.06349242
000050 48 1c a4 3c d3 b5 05 3d ba 26 a9 3d d0 67 53 3d
       0.020033017 0.032644104 0.0825934 0.051612675
000060 a5 d3 c6 bd 63 57 52 bd ac 88 d5 bd 3c 43 6b 3d
       -0.09708337 -0.05135287 -0.10426459 0.057437167
000070 03 1e d9 bd a2 47 3b 3d 24 9e cf bd 50 83 e5 bd
       -0.106014274 0.04572261 -0.10137585 -0.112066865
000080 07 e5 c8 3d 71 24 a7 3c d3 c6 d2 bd 71 53 c2 bd
       0.098093085 0.020403119 -0.10291829 -0.094885714
000090 94 0e 02 be b2 85 5c 3d 2b 97 04 be 96 af 04 be
       -0.12700874 0.05383844 -0.12948291 -0.12957606
0000a0 c8 78 7c bd 53 fa 88 bd ab 85 f1 bd 58 68 ef bc
       -0.061638623 -0.066883706 -0.11793073 -0.02922456
0000b0 42 cb 59 3d 7a 64 01 bd 91 3c 55 3d b0 a3 81 bd
       0.053172357 -0.031589963 0.052059714 -0.06330049
0000c0 6f 2a d7 3d 8f e8 ca 3d c5 97 6c bb a4 28 4c 3d
       0.105061404 0.09907638 -0.0036101204 0.049843445
0000d0 af 0e 33 bd 92 1e 7b 3d 7b 75 e8 3d 96 dc ea 3d
       -0.043715175 0.06130845 0.113505326 0.11467855
0000e0 20 2b 0b 3d bc 2e d0 bd f1 76 9f bc da 49 dd 3d
       0.033976674 -0.10165164 -0.019465895 0.10805102
0000f0 2c c5 f9 3d 0e c5 7a 3d 0c 0e 93 bd e2 5b e6 bc
       0.12195811 0.061223082 -0.071804136 -0.028119985
000100 ee 22 1a bd 80 43 b6 bd 95 da c7 bd 1b e2 63 3d
       -0.037630968 -0.08899593 -0.09758488 0.055635553
000110 1a 78 6f 3d b8 e7 a2 bd ee 21 3b 3d a0 db 0a 3a
       0.058464147 -0.07954353 0.045686655 0.0005297009
000120 92 e9 d1 bd ee 59 87 bd ad 72 36 3d a5 f6 bd 3c
       -0.10249628 -0.066089496 0.044542957 0.023188898
000130 a2 b0 91 bd 1b 5b 0f bd 61 c7 96 bd 41 12 ba 3d
       -0.07113768 -0.034998994 -0.07362247 0.09085513
000140 d9 3c 1e bd a5 c6 9a 3d ab 44 ee 3d 1e b0 df 3b
       -0.038632248 0.0755742 0.11634191 0.0068264147
000150 98 a7 9d 3d 55 ba 1e 3c e4 f1 d5 bb 1b cd 37 bd
       0.076979816 0.00968798 -0.0065290798 -0.04487334
000160 21 a2 0b 3b 6f c5 db 3c 26 44 90 3c 6c c9 84 3d
       0.0021306353 0.026827542 0.01761062 0.06483731
000170 06 8c fd 3b 65 48 94 bd 58 1c 0d bc 65 cf 0d 3d
       0.0077376394 -0.07240371 -0.008612715 0.034621615
000180 0a 3d 7c bd e7 c2 1f bd cc 9d d9 3d 86 55 55 3c
       -0.06158165 -0.039004233 0.106258005 0.013020879
000190 50 ff d5 3a 99 1d ba 3d e1 aa cb bc 7a 07 05 be
       0.0016326699 0.090876766 -0.024861755 -0.12991133
0001a0 7e 48 12 bb 1b b0 b5 bd 3e cc 51 3d 06 79 0b be
       -0.002232104 -0.0887148 0.05122017 -0.13620386
0001b0 aa 47 07 be 2e 66 83 3d 4a 11 58 3d 73 12 83 3d
       -0.13210931 0.064159736 0.052750863 0.06400003
0001c0 0a e1 98 bc e8 97 be 3d 69 23 97 3d 17 e7 9b bd
       -0.018661994 0.093063176 0.07379801 -0.07612436
0001d0 2f 52 74 bd 08 95 36 bd 3f 7f 12 bd 1f 20 1f bd
       -0.05964869 -0.04457572 -0.035765883 -0.038848992
0001e0 13 92 ff bc b0 b0 0f 3d 44 10 82 bd e7 24 0e bd
       -0.031197583 0.03508061 -0.06350759 -0.03470316
0001f0 0c 65 05 3d 98 75 f4 3c 53 de 10 bd 6b 3b 33 bd
       0.03256707 0.02984123 -0.035368275 -0.043757837
000200 5b 89 fe 3b 00 a6 65 bd 36 d7 81 bd 77 66 3b 3d
       0.007767839 -0.056066513 -0.06339876 0.045752015
000210 4f 06 93 bd d3 ba 8b bd 08 78 9c bd 32 56 d7 bd
       -0.07178938 -0.06822743 -0.07640082 -0.10514487
000220 a0 1a 92 3d e5 58 14 be 2e b2 b5 3d 15 01 cc 3c
       0.071339846 -0.14487036 0.08871876 0.02490286
000230 1e 70 a8 3c b8 c7 45 bd 78 2f 0a be 88 3e 5b bd
       0.020561274 -0.04828617 -0.1349467 -0.05352643
000240 f1 79 c0 bb 9e 8e 2d bd eb d1 87 bd 54 54 1d 3d
       -0.0058739115 -0.04237234 -0.066318356 0.0384105
000250 3a 2d 2d 3c 55 07 12 be 97 da a9 3b 14 3c 89 3d
       0.010569865 -0.1426061 0.0051835286 0.06700912
000260 d9 8a f7 bd 14 8b e3 3d 9c 65 10 bd a7 73 8e 3c
       -0.1208703 0.111105114 -0.035253152 0.017389132
000270 0e 6c ad bd 2e 24 96 bc 15 61 2e bd 6d 6a 83 3d
       -0.084678754 -0.018327799 -0.042573053 0.064167835
000280 67 b9 ec bd ab 81 f3 bd d0 4f 20 be 66 65 61 bc
       -0.115588 -0.118899666 -0.15655446 -0.013757085
000290 1d 77 d5 bd 99 0f ab 3d 1e cc 45 bc e0 5e 92 3c
       -0.1042311 0.083525844 -0.012072591 0.017867506
0002a0 13 3e 8f bd f2 d8 42 3d 27 84 13 bc c3 36 fc bd
       -0.069942616 0.047570176 -0.009003676 -0.123151325
0002b0 e0 9b 1f 3d e3 6c cb bb ff 25 83 bd 88 0c 8a bd
       0.038967013 -0.0062080487 -0.064037316 -0.067406714
0002c0 f3 78 91 bd 27 5a 06 bc 49 76 67 bb 8e 34 50 bd
       -0.07103147 -0.008200205 -0.0035318306 -0.05083137
0002d0 b3 dc 03 be 08 e0 26 bd e1 70 86 3d 26 a8 0c 3c
       -0.12877159 -0.040740997 0.06564499 0.008585012
0002e0 13 05 24 bd 7e c1 85 3d 75 3f 73 bd 0f 80 9e bd
       -0.0400439 0.06531046 -0.05938669 -0.07739269
0002f0 ed c7 80 3d 2f 5c b5 3d 5c 8e 8a 3c a3 ea 5f bd
       0.06288133 0.08855473 0.016913585 -0.054667126
000300 9f 90 71 3d ec 3f ae bd 3f 4c 48 3d 02 0e fd 3d
       0.058975812 -0.08508286 0.04890084 0.123561874
000310 dc 1c 17 be 7e 97 be 3d 8c 1c 06 be d0 d1 b6 3d
       -0.14757103 0.093062386 -0.13096827 0.08926737
000320 aa 53 96 bd 96 77 d0 bd 5e 3d b3 bd ce 1b 97 bd
       -0.073401764 -0.10179059 -0.08751939 -0.0737835
000330 33 7c 97 3d 6c e7 59 bd 42 c9 f7 bc 7e 47 eb bd
       0.07396736 -0.053199217 -0.030247334 -0.114882454
000340 bb 09 2c 3d 64 34 b7 bd 41 e5 7b bc c2 a0 46 bc
       0.042001467 -0.089455396 -0.015374483 -0.012123289
000350 dc 92 3e 3d 27 42 a4 3a 36 75 a2 3c 11 2a 59 bd
       0.046526775 0.0012531922 0.019831281 -0.053018633
000360 6c bc a3 bd f4 1e e7 bc 0e 0e 13 bd 1d 3e cf 3d
       -0.07994923 -0.028213002 -0.035902075 0.10119269
000370 23 68 71 bd cc 6a 44 bd 1a 30 aa 3d b4 df 52 3d
       -0.058937203 -0.047953412 0.08309956 0.05148287
000380 9a 7b a1 3d e8 1b c7 3d 43 5f 8b bd f6 7b a5 bd
       0.07884903 0.097221196 -0.06805279 -0.08080284
000390 45 4f ea bc 76 0c 3c bd a7 8b 07 be 5b 05 f5 3c
       -0.028602252 -0.04591032 -0.13236867 0.02990978
0003a0 d5 51 b0 3c 65 97 29 bd 0a 91 d4 bd 8c dc a0 3d
       0.021523396 -0.041404147 -0.103792265 0.07854566
0003b0 81 9a 18 bd ec 8f 5b bd da 20 59 3d 2a 4d 53 bc
       -0.03725672 -0.05360405 0.053009845 -0.012896815
0003c0 af dd 2c 3d ff 72 da 3c fa b2 9d 3d a6 85 64 bc
       0.0422036 0.026666163 0.07700153 -0.01394788
0003d0 9f be b9 3d 4b cd 84 3d 8b 2a b4 3d 26 a0 d2 3c
       0.09069561 0.06484469 0.08797177 0.02571113
0003e0 77 2d 80 3c 04 28 c5 bd 07 a2 31 bd 92 12 89 bd
       0.01564668 -0.09626773 -0.043367412 -0.06692995
0003f0 0f ba 4b 3d 3c f7 02 3d d5 4f 08 be 7d b8 95 bc
       0.049737986 0.031974062 -0.13311704 -0.018276447

output.bias f4 [10]
000000 e1 49 10 3e 1e 47 88 3b fd c3 b7 3c 7a 4e 98 3b
       0.14090683 0.0041588685 0.022432322 0.004648027
000010 18 ca 8e bd aa e3 f1 3d e0 36 4a 3d 16 0d a4 bd
       -0.0697214 0.118110016 0.04936874 -0.080103084
000020 bb 6f da bc e8 f6 23 bb
       -0.026664605 -0.0025018994
