doodle/trained_network/doodle_ann_weights_1000_2layers.pth (torch, 799478 bytes, 6 tensors)

fc1.weight f4 [200, 784]
00000000: 2be6 5e3c b5a4 6abd d78f 333d f8de ca3d
00000010: 450a 213e 4beb 8b3d 34dc 903d 6c45 353d
00000020: c2b1 f23c 8d42 073d 87e6 9b3c 0cbb 633d
00000030: 03d0 5c3c 0ee6 703d 7ec2 c93d 6098 d93d
00000040: 991d 003d d20d 03bb acf9 98bc a0ec 42bd
00000050: 7e04 1ebd 4339 f0bc f1ef 15bd 4b31 c03c
00000060: d09a 893d 1c17 1f3c 9fc2 093c b8b8 223e
00000070: 7d99 8bbc f131 b53d ac08 313d 45f6 fc3d
00000080: 7ed4 ed3d 4b69 9b3d f106 583d d88b 463c
00000090: 56f8 983c 26de c7bc 81f6 373d 1144 0abd
000000a0: a067 b43c 4b09 153d 660e d43b 39a3 7a3d
000000b0: 62fc 38bc 5a15 ed3c d99b 8339 8948 90bc
000000c0: 96e8 3abd 0965 1fbd 45bb 8fbb f308 f3bc
000000d0: ab1c 613d 09e0 633d 9cf6 633c 5269 393e
000000e0: 89b4 923c c91a f0bd 1303 0cbd c6a2 eb3c
000000f0: 0a5d be3d 29fb 543d c986 15bc 32cd e03c
00000100: 1794 c63b 8ee3 fa3c 4e8f 103d 53a3 2fbc
00000110: bd1f 96bb df64 613c 78d2 383c e113 2f3d
00000120: 6593 153d 571e b93c 18e5 183d 246f 02bd
00000130: 6155 38bb 7e8e 793c 5ecb 833d f456 033c
00000140: 047d d3bb 2db2 883c ed56 41bd 6375 e73c
00000150: 222e 8ebd 23ba e03c 502b 173c d6c1 8a3d
00000160: af20 883c 089c 4f3d 5d8b 843c 8d8d e03b
00000170: a8cd b73c 5b5b a03c 5042 0539 ceb2 123b
00000180: c3c2 92b9 d42b 023d 3c66 4a3c 37cd a8bc
00000190: aca4 e63c a217 91b9 7fab d03c 18a0 6abc
000001a0: fc7f 1e3d c568 2f3d 50b8 563d 677b 4d3d
000001b0: b585 8d3d 531d 993d b18e 403b bd27 933d
000001c0: 0e3f a23b bbe7 b73d 117b 703d 719d 1d3d
000001d0: 5fe6 703d 5185 723c b8cb 973c 5c59 013d
000001e0: a592 d5bc dbe3 38bd 3799 d33b 8ad0 64bd
000001f0: b7ea 26bd 4d42 7ebc ae12 43bd 0df5 32bd
00000200: 64a4 ee3c 5dff 1d3d 43b0 493d b48a 573d
00000210: fe9e 243c 4a1b 543c b30e bb3c d810 893d
00000220: e538 533b 9f80 05bd be92 903d 96ee b83d
00000230: da47 65bd 1880 6c3d 35a6 e03c ddc4 613c
00000240: 1758 cb3c 9bce 943c e969 263d b3fd cabc
00000250: e5e6 d23c e3e4 d33b 7355 1b3a 5ec6 1ebd
00000260: dae2 b5bc bd96 e7bc 4e8d 94bd aec9 7bba
00000270: d9a3 b5bb 5657 823b 82a6 323d 8ee3 a83d
00000280: e739 6b3d 2fa0 d03c 3c28 753d 3d2d 8f3c
00000290: 8b97 46bc 36cc 493d 9ff5 ff3c dd1d 323d
000002a0: ac7d 90bc fcfd f3ba 0db4 113b a72f 373d
000002b0: 3ab2 5abc 36e7 1e3d 8bb4 c83b 1ef6 b3bc
000002c0: 2597 34bc 4d1b 64bc 1f73 773c d6df ccbc
000002d0: 9f7a 90bd 6a37 adbd 81fe fabc 4b3a 74bc
000002e0: 9544 c9bc db82 093d e777 773d 94f2 833d
000002f0: eefd c13c a56d 0b3d dacc fc3c af92 a03c
00000300: 996d 583c 24e3 d93c 0da3 7fbc be6d 033d
00000310: 9329 e43c df05 0f3d 5946 9f3c 5916 133d
00000320: d44d a2bb 6e07 b0b9 6e79 943b 82d8 b339
00000330: 9e55 c73c d5bb 213c f9b2 37bd c1bd 30bc
00000340: b97d 55bc 687f 9bbd 2411 45bd a429 21bd
00000350: 013b bc3b 026e 9cbc 0bb6 6fbb c171 103d
00000360: b32d 303d c288 653d 35d9 343d b3d2 e43c
00000370: 0165 0f3b c2e1 0abd 54eb 77bc 7358 7e3c
00000380: 1c21 e03d 96a5 2f3d a0c8 263d 2abb 033a
00000390: 185f c9bc 486f 813b d111 a4bc 013c cabc
000003a0: 7699 adbc 4cbd 383c 4870 a33a 215a debc
000003b0: 6466 8a39 76cb 47bd 68e3 0ebd 9b24 3d3c
000003c0: 0405 863c ee83 173d 01ff b53c bda8 4b3d
000003d0: 75ae f43c 77ca 833d f84a 143d 18eb bcbb
000003e0: 28de feba 7564 bfba 0795 a3bc 1fbf 813d
000003f0: ad23 b53d 3aac a33c f1f7 2d3d 75f6 0b3d
0.013604681 -0.057285983 0.04383835 0.09905809 0.15726574 0.06831988 0.070732504 0.04425566
0.029625777 0.033022452 0.019030822 0.055598304 0.013477328 0.058813147 0.098515496 0.10624766
0.031278227 -0.0019997251 -0.01867374 -0.047588944 -0.038578503 -0.02932418 -0.03660578 0.023461005
0.06718981 0.0097101 0.008408218 0.15890777 -0.017040962 0.08847416 0.04322116 0.1235166
0.11612795 0.075884424 0.052740995 0.012118302 0.018673103 -0.02439792 0.04491282 -0.03375632
0.022022069 0.036385816 0.006471443 0.061190818 -0.0112906415 0.028940845 0.00025102383 -0.017612712
-0.045631967 -0.038914714 -0.004386338 -0.029667353 0.05495898 0.05563358 0.013913777 0.18106583
0.017908351 -0.11723859 -0.03418262 0.02876414 0.092950895 0.051997337 -0.009126374 0.027441595
0.006060134 0.030626085 0.035292916 -0.010720092 -0.00458142 0.01375696 0.011280648 0.042743567
0.03651752 0.022597475 0.037327856 -0.031844273 -0.0028127062 0.015231727 0.064352736 0.008016337
-0.006454112 0.016686523 -0.04720204 0.028254217 -0.06942393 0.027432507 0.009226635 0.067752525
0.016617147 0.050685912 0.016179735 0.0068528117 0.022436932 0.019574812 0.00012708572 0.0022384408
-0.000279924 0.03178008 0.012353476 -0.020605667 0.028154694 -0.00027674163 0.0254724 -0.014320396
0.038696274 0.042824525 0.052421868 0.050166514 0.06910268 0.07476296 0.0029381926 0.07185314
0.0049513644 0.08979746 0.058711115 0.038480226 0.05881345 0.014802293 0.018529758 0.03157936
-0.026070902 -0.045139175 0.0064574736 -0.05586294 -0.040751185 -0.015518737 -0.047625236 -0.04369073
0.029131122 0.03857361 0.049240362 0.052622512 0.010047672 0.012945959 0.022834158 0.06692666
0.0032229957 -0.032593366 0.07059239 0.09029882 -0.055976726 0.057739347 0.027423004 0.013779846
0.024822278 0.018164923 0.040628348 -0.024779176 0.025744865 0.0064664944 0.00059255137 -0.038763396
-0.022202898 -0.02827012 -0.07253514 -0.0009604943 -0.005543214 0.0039776964 0.043615825 0.082465276
0.057428267 0.025467006 0.059852824 0.017477626 -0.012121092 0.049267016 0.031245051 0.04348551
-0.01763805 -0.0018615122 0.0022232563 0.04472318 -0.013348157 0.03879472 0.006125038 -0.021967944
-0.011022364 -0.013922525 0.015103131 -0.025009077 -0.07054638 -0.08457835 -0.030638935 -0.014906476
-0.024568835 0.03357206 0.060417082 0.064427525 0.023680653 0.034040112 0.0308594 0.019601194
0.013209724 0.026597567 -0.015602839 0.03208708 0.027851855 0.03491771 0.019442724 0.035909984
-0.0049531255 -0.00033574871 0.004531077 0.0003430285 0.024332818 0.009871443 -0.044848416 -0.010787428
-0.013030463 -0.0759266 -0.04811205 -0.039346352 0.0057443385 -0.019095425 -0.0036577012 0.035264734
0.043012332 0.056038626 0.044152457 0.0279325 0.0021880271 -0.033906706 -0.01513179 0.015524018
0.10943815 0.042882524 0.040718675 0.0005025143 -0.024581477 0.0039500333 -0.020028027 -0.024686815
-0.02119134 0.011275601 0.0012469376 -0.027142586 0.00026397698 -0.04877802 -0.03488484 0.011544372
0.016359814 0.036991052 0.022216322 0.04972147 0.029868344 0.064351015 0.03620431 -0.00576533
-0.001944487 -0.0014602082 -0.019968523 0.063352816 0.08844695 0.019979585 0.042472783 0.034170587

fc1.bias f4 [200]
00000000: f4a2 e0bd e002 95be f4b1 1d3e 416c fcbd
00000010: a5e1 8d3d ec02 6bbe 4479 3b3e d45d c23e
00000020: 4e13 0d3e 2e90 27bd f265 423d fae9 9b3d
00000030: adcd 32bd 6e32 5d3e 2e82 863a 6b2b 7fbc
00000040: 3ee8 13bd 8fb7 883e a95c 44bc e523 4a3e
00000050: 4e45 9cbe 69a7 7a3e dfde 913d 20ca 23be
00000060: 4359 343d ea89 9cbb 006e 4d3d 0e96 583d
00000070: eb2f 92bd e0ea 543e 7900 61be a35e 7c3e
00000080: 603e 523d 107d 2dbe 3ae8 84bd 5d9d 713e
00000090: 7c5f 573c b0cb 9fbd ce4a 773d 69f6 0a3e
000000a0: 720d d03d 3573 4bbe c462 5dbe 1e10 d8bd
000000b0: f90b 123e 9a78 443d b04f d43e 750c 843e
000000c0: d3b2 393c 2675 57be 80a7 5a3d 982a 9c3e
000000d0: 128e a9bc 02de 14be 3398 833e 1fa6 133d
000000e0: f732 033e 23e2 3c3e 2d6c 553e a77f cf3c
000000f0: 54df 7fbd d0ab c63b e7d0 ddbd 3275 21be
00000100: 0a38 0f3e 853c 8b3c 81ca f03d dd10 293e
00000110: a6b0 0bbe 130b 903e 2d5c ac3e 3654 90bd
00000120: 08ab 343e 2e9d 293e b6fd bf3d 3177 e93d
00000130: 13b5 933e 8ea3 53be a3c9 07bd 5e88 343e
00000140: fb3a 513d 3d26 1f3d 98b8 22be afc6 8a3d
00000150: cb49 b03d d7ad dd3d 6e90 09bd ba3b 25be
00000160: ae23 6b3d 583f f43d 19e3 d2bd ecb7 c93d
00000170: 7832 17be 3c24 5c3d 1552 2dbe 5ef2 a5bd
00000180: 15d2 613e 62f0 81bc 099a 20be 9abf 3e3d
00000190: e439 9a3d b74d 48be 6045 0f3e 4467 963e
000001a0: 61ea de3d 35a0 59be f983 28be 5f69 8ebd
000001b0: 8721 043e 01f0 823e fba2 a13d f8a6 ad3d
000001c0: 01a0 293e f19c abbb 85a7 2d3e b856 babd
000001d0: 3d28 283e aa23 71be 42be 19bd 0bea 97be
000001e0: 268e e03d 649d 2b3e 5036 97bd 039d 6dbe
000001f0: c6a1 0a3e 3805 c3be 1521 53be d7fe 843e
00000200: 7f62 913d 5029 86be c6ee 26be 31f6 21bc
00000210: 3c80 7ebd 3312 6a3c 915c 693e e30b f3bd
00000220: 2ef6 2cbc 7f13 313e 53d9 343e 333c 95bc
00000230: f270 fa3d 5534 763d 5edd 89bd 96de d33d
00000240: 71c2 6e3e 4c38 473e b6c8 dbbd 9c2c 5bbe
00000250: 4038 93be f8c4 05be dbf9 9a3e 7497 353d
00000260: 9adb 233e 41b0 483e 9485 42be 9b32 e3bc
00000270: 2bef 8fbd df8e 21bd c1cf 293e 102c 85bd
00000280: 8e79 033d a84b 9e3d e50a 023e 9eed 99be
00000290: 2b89 5dbd b53b 313e 3829 8bbe 7150 e93b
000002a0: 8381 ebbd dbf1 b6bc dce9 4ebe 29c9 07bc
000002b0: 98f7 4e3e a2d0 5f3d 9f94 77bc 01bf 353e
000002c0: 84b9 b4bd 6aac fdbc de39 503e c154 6c3e
000002d0: 98e5 29be 409e a13d f343 10bd 994d 09be
000002e0: 5e66 f8bd c01c 87be 858a 9dbd 028a 23be
000002f0: c2c7 24be 24df 0e3e 04dc 953e b0cf 723d
00000300: 2ff9 0e3e 96f7 733e ed9c 033e ddff c83d
00000310: 2a43 b33d 90ef 82be f855 6b3d f375 b1be
-0.10968581 -0.29103756 0.15399915 -0.12325335 0.06927804 -0.22950333 0.18307978 0.3796221
0.13776895 -0.040908985 0.047460504 0.07612987 -0.04365318 0.21601269 0.0010262185 -0.0155743165
-0.036110155 0.26702544 -0.0119849825 0.19740255 -0.30521625 0.24477924 0.071225874 -0.15995073
0.04403044 -0.004777183 0.050153732 0.05287748 -0.07138046 0.20792723 -0.21972837 0.24645476
0.051329017 -0.16942239 -0.06489606 0.23595186 0.013145324 -0.07802522 0.060374074 0.1357056
0.101588145 -0.19868167 -0.21619707 -0.10549949 0.1426238 0.047966577 0.41467047 0.25790754
0.011334139 -0.21040782 0.053382397 0.30501246 -0.020697627 -0.14537814 0.25702056 0.036047097
0.1281241 0.1844564 0.20842047 0.025329424 -0.06246884 0.006062962 -0.108308606 -0.15767363
0.13986221 0.016996631 0.117573746 0.16510339 -0.13641605 0.2813345 0.33664075 -0.07047312
0.17643368 0.16563866 0.093745634 0.11399687 0.28849086 -0.2066786 -0.03315128 0.17630145
0.05108164 0.038854826 -0.1589073 0.06776177 0.08607825 0.10824173 -0.033585005 -0.16136065
0.057407074 0.11926144 -0.10297222 0.098495334 -0.14765346 0.053745493 -0.16925843 -0.081028685
0.22052796 -0.015861694 -0.1568376 0.046569444 0.07530573 -0.19560896 0.13991308 0.2937566
0.10884548 -0.2125252 -0.16456594 -0.06953692 0.12903415 0.25573733 0.07892414 0.084791124
0.16564943 -0.0052372147 0.16958435 -0.090985715 0.164216 -0.23548761 -0.03753496 -0.29670748
0.10964613 0.16759259 -0.07383406 -0.23204426 0.13538274 -0.3808992 -0.20618089 0.25975677
0.07098865 -0.26203394 -0.16302022 -0.009885357 -0.062134013 0.014286566 0.22789218 -0.118675016
-0.010556741 0.17292593 0.17661028 -0.018217182 0.12228574 0.0601085 -0.067316756 0.10345189
0.23316361 0.1945507 -0.10731642 -0.21403736 -0.28753853 -0.13063419 0.3026875 0.04433389
0.1600174 0.19598486 -0.18996269 -0.027734092 -0.070280395 -0.039442893 0.16583158 -0.06502545
0.032098345 0.07729274 0.12699468 -0.300641 -0.05408589 0.17307933 -0.27179885 0.007120185
-0.11499312 -0.022332123 -0.20206398 -0.008287706 0.20211637 0.054642327 -0.015111118 0.17748643
-0.08824447 -0.030966002 0.20334575 0.23079206 -0.1659149 0.07891512 -0.03522105 -0.13408507
-0.121289 -0.26389122 -0.07692436 -0.15970615 -0.16091827 0.13952309 0.2926942 0.059280097
0.13962243 0.23824915 0.12852831 0.09814427 0.08753045 -0.25573397 0.057455033 -0.346603

fc2.weight f4 [200, 200]
00000000: dbe0 163c ab4e 81bc e567 cc3b 8322 263d
00000010: 443e 71bc 074f d0bd fcfd 5fbd ab28 86bd
00000020: ab14 b7bd 1bc3 5fbe 904f b8bd 6fe8 d6ba
00000030: c497 ed3d 77b5 b6bc eccf aaba 39ad 5abc
00000040: bfec 2e3e 4524 01bd cefd 963d c9d7 2b3a
00000050: 8a4d 17be 8c96 fdbe 8a47 9cbd 1bdd 42bd
00000060: cef0 74bd 12f1 9c3d b345 093e 83be 86bc
00000070: e11c 6cbd 3821 c5bc f191 363d ffce 35be
00000080: 94f0 a43d 9899 6c3d 0d8d 9b3d 0ea8 0abd
00000090: ddcc 27bd 93c6 a63d cd25 9bbc 566e 383d
000000a0: 96e2 d7bc a6be 323d 61bc 0dbc 90eb b63d
000000b0: 9694 bc3d 98b3 98bd 1430 053e 9be1 59bd
000000c0: 4da9 4dbe 3ad2 86bd e971 36be d37b c3bd
000000d0: f738 4f3d 1c7a f3bb f961 8b3d eae3 873d
000000e0: 620a 2c3e ecae 103d 44e5 2abb 8ac7 cb3b
000000f0: 8cf2 17bd 745a d5bd 75d1 763d 3640 dc3d
00000100: e04f dbbb 5884 c3bc 5d37 b23d 0480 043d
00000110: 0c33 9e3d 7ec8 283d d098 243e 0b8a 993d
00000120: a804 c7bd 543d bdbc 98ab 323d ec9f b93d
00000130: acc4 33bd d9e2 893d 82ca bf3c 5057 40bb
00000140: 549e 293d 99c8 a0bd d475 1bbb 9147 a5bb
00000150: 6a09 d03d a200 a93b ef86 dbbd 1308 6b3d
00000160: d7e2 0f3c d2a9 ac3d b399 313d 4f3b 7dbc
00000170: a223 c13d 9b72 323d 2d04 e63d 5eac 81bd
00000180: 9b03 6f3c 9389 143d a3f5 de3d a860 723d
00000190: 8a58 2bbe dcb8 c73d dfc1 17be ce8b d73c
000001a0: a541 e7bc 3d7d df3d 8fe3 433d d292 ba3d
000001b0: 58f1 f6bc bf5d 99bd aba4 213e 1dda 893d
000001c0: c4b6 c23c 2518 053b 628e a8bd daeb e2bc
000001d0: e114 07bc 2923 393d 9bac 9ebe ff02 92bd
000001e0: a832 9a3d 4390 173d 5d0a 023e 58df 21bd
000001f0: 48fb b6bc 59fa 06bd 89b7 9a3d 4f60 913c
00000200: d0d4 fbbc 767d 78bd b660 ae3d 8aec ffbd
00000210: fcf7 d5bd 4641 a3bd 1261 b5bc 22bd 883d
00000220: 7f2a 2ebe a311 82be e3ab 8e3d c79f efbc
00000230: 7edb 013c 1088 21bd 38c9 0ebe 3f49 1f3e
00000240: e659 06be ebc8 6abe 29c2 dd3d d12f 65bc
00000250: 7a8e 1a3d 8afe ccbc 3180 1cbd fdcf 6c3d
00000260: d0e8 90bd c95d 07ba 5668 6b3d a553 ee3c
00000270: e4ed aebd af2c 9ebb 47e8 adbb 5b76 b43d
00000280: ebc6 0ebd d5ff cfba b197 a3bd 3381 a5bb
00000290: 1047 d1bd 349d 35be 37b3 fabd b3b2 033e
000002a0: e742 2d3d 112b 8c3d 2e36 85bd 461d 1a3d
000002b0: 5b2d 94bc ed76 cdbc 1be8 9abe 84e9 693d
000002c0: ce5d 07be 43fa c5bd 6ebf 5e3d 2101 7ebd
000002d0: 27f4 4e3d 9032 b23d aab9 94be 195d 263c
000002e0: 38e5 163e 38c1 ef3d e39b 57bc fc98 67bc
000002f0: 59c4 46bd 566b 0f3e 7e1a b6bc 7206 38be
00000300: c964 a93c 01f0 bbbc 371e 483e 003b 53bd
00000310: 4bdb 56be d6bf 0e3d f615 6ebc 7db3 1fbd
00000320: 744e 35bd 1896 43bd eda0 b03d 8ce6 0fbd
00000330: e07d 943d 9ba6 0f3e cdfa ec3c 3610 39bd
00000340: 5699 bebd 14d9 a6bd f085 943d b37c 5a3d
00000350: 04c0 acbd 8d30 3d3d 9f6b 153e 3022 41bd
00000360: 662d 0cbe 20b0 5bbd 90f2 3abd db6d 06bd
00000370: 9ea9 203e 1dfb 013e 3243 ca3d 7573 b4bc
00000380: 4db5 d43d 167d a4bd 684a 1bbd 3796 27bb
00000390: d451 fd3c af15 55bd 4cab ddba 4a0d 7d3e
000003a0: e2b4 5fbc d4aa 3e3d e1fc 57bc 7e71 203e
000003b0: a3af bc3c 574e 9f3c 0de2 52bd bed8 3c3c
000003c0: a953 9cbd 3cfe f83d 9b0f a73c 6308 223e
000003d0: 21b2 00bd 6589 f13d 4001 4bbe 0264 39bd
000003e0: 336a af3c 0149 f9bc eebf 80bd 03e4 5f3d
000003f0: 04f3 5cbd 39e2 58bd de6a 133c 1f09 f3bd
0.009208883 -0.015784582 0.006237971 0.040560257 -0.014724318 -0.10171323 -0.054685578 -0.065507255
-0.08939489 -0.2185177 -0.0899955 -0.0016396175 0.116012126 -0.022303326 -0.0013031936 -0.013346964
0.17082499 -0.03152873 0.07372628 0.0006555287 -0.14775673 -0.4952892 -0.076308325 -0.047574144
-0.05979996 0.07663168 0.13405494 -0.016448265 -0.05764473 -0.024063691 0.044572774 -0.17754744
0.08053699 0.057763666 0.07595263 -0.033851676 -0.040966857 0.08143344 -0.018938923 0.0450271
-0.026353162 0.043638848 -0.00865087 0.08931649 0.09208028 -0.0745613 0.13006622 -0.05319367
-0.20084114 -0.06583066 -0.17816891 -0.09545102 0.050591435 -0.007430328 0.06805796 0.06635268
0.16800836 0.03532307 -0.0026076594 0.0062188553 -0.037096545 -0.10417643 0.060258348 0.10754435
-0.0066928715 -0.023866817 0.08701966 0.032348648 0.0772458 0.04120683 0.16073918 0.07497033
-0.09717685 -0.023100533 0.043620676 0.09063706 -0.043888733 0.06732721 0.023411993 -0.0029348917
0.04141076 -0.07850761 -0.0023721354 -0.005043932 0.101580456 0.005157546 -0.10719096 0.057380747
0.00878211 0.08430828 0.04335947 -0.015456035 0.094306245 0.043566328 0.11231265 -0.063317046
0.014588262 0.036264013 0.10886695 0.05917421 -0.16732994 0.09752056 -0.1482005 0.026311781
-0.028229544 0.10912559 0.04782444 0.09110035 -0.030144379 -0.07488584 0.15785472 0.06731055
0.02376879 0.002030858 -0.08230282 -0.027700353 -0.008244724 0.045199547 -0.30991063 -0.07129478
0.07529193 0.037002813 0.12699266 -0.039519638 -0.022336617 -0.032953594 0.07554538 0.017746119
-0.030741125 -0.060666524 0.0851454 -0.12496288 -0.1044769 -0.07971434 -0.022141013 0.06676699
-0.17008398 -0.2540408 0.069663785 -0.029250992 0.007925866 -0.0394364 -0.13943946 0.15555285
-0.13120231 -0.22928207 0.10828049 -0.013988451 0.037733532 -0.025023717 -0.03820819 0.05781554
-0.070756555 -0.00051638164 0.05747255 0.02909262 -0.08541468 -0.004827104 -0.0053072306 0.08811637
-0.03485767 -0.001586909 -0.07987917 -0.005050802 -0.10218632 -0.1773575 -0.12241214 0.12861137
0.04230013 0.06844152 -0.065044746 0.037625574 -0.018088033 -0.025081122 -0.30255207 0.057107463
-0.13219377 -0.09666874 0.05438178 -0.062012795 0.05052581 0.0870105 -0.290479 0.010154032
0.14735878 0.117067754 -0.013159725 -0.014135595 -0.048527095 0.14005789 -0.02222943 -0.17971209
0.02067794 -0.022941591 0.19542776 -0.05156994 -0.20982091 0.034850918 -0.014531603 -0.038989533
-0.04426427 -0.047750562 0.08624444 -0.035131976 0.07250571 0.14028399 0.028928185 -0.045181476
-0.0930659 -0.08146873 0.07252109 0.05334158 -0.084350616 0.04618888 0.14591835 -0.047151744
-0.13689193 -0.053634763 -0.045641482 -0.03281961 0.15689704 0.12693448 0.09876098 -0.02202771
0.10386143 -0.08031671 -0.037912756 -0.0025571713 0.030922808 -0.052022632 -0.0016912012 0.247121
-0.013653966 0.046549633 -0.01318285 0.15668294 0.023032969 0.019446535 -0.05148511 0.011526285
-0.076331444 0.12157866 0.020393183 0.15823512 -0.031419877 0.11793784 -0.19824696 -0.04526139
0.021412944 -0.030430319 -0.06286608 0.05466081 -0.053942695 -0.052950118 0.008997647 -0.11866974

fc2.bias f4 [200]
00000000: 4a97 b1bd d1d8 453d 9c29 143c bea7 21be
00000010: 4842 91be 89b1 4c3e c656 88bc de57 73bd
00000020: 5871 ec3d 96e2 8b3d 14d2 13be 091d d9bc
00000030: dbec 3a3e 5456 733e a962 623d d7a9 d6bd
00000040: cdd0 593e c4c8 233d 0887 6bbe 3081 d13d
00000050: 691f fa3c 61d4 d0bd 1ff7 fb3c 7e1b 67bd
00000060: 6906 09be ee10 163e 14d8 803e dcdd d23d
00000070: 986a c43c 2d3d 2bbe 3c85 1b3e 6914 1a3e
00000080: f674 923a 5bce b13b a4ec 013d 99b7 80bc
00000090: 40e4 7f3e 584a ea3d 0add 81bc 118b 22be
000000a0: 4365 093e ef8e 1a3c d883 eebc 3954 a23e
000000b0: deec 433e 3f61 743b 3eb5 813d 1838 95be
000000c0: 5438 a7bd ec03 51bd be34 20bd 7fab 2fbd
000000d0: fa06 1e3d 72bd d83d 0ccb 703d 5999 b5bd
000000e0: ca35 51bd 3684 0bbc ee5f cfbb 15f8 bfbd
000000f0: 2c07 5c3d c359 903e d663 f8bd f7e3 df3d
00000100: 5ea1 12be 975b 9f3e d6d0 e53b 432d 0e3e
00000110: 81f5 623c 41a8 f8bd cab0 653d 85c4 7fbd
00000120: 7595 883d 53bc 79be 10a3 0e3d 6911 373e
00000130: f3fa febd 6876 9b3d c1d2 973d 8421 063e
00000140: 6f55 61bd 8a71 fb3d be45 b8be d2da 6e3d
00000150: fb5a 1e3e cae6 a3bd 17f1 9a3d bdbc 223d
00000160: 1237 18bd 185b 7ebe 5091 f9bc 875d e4bb
00000170: 1f1e 763e 5958 ffbd 4b19 66bc a96e e7bd
00000180: 5e68 263e 480b 13bd 4d5f cfbd 53fa 9c3e
00000190: 713a 04be b7b7 aebd f26f d3bd fd9f af3d
000001a0: bae3 863d be5a ea3c d8e2 0e3d 71e6 d83d
000001b0: e836 09bc 444a dfbd 5c83 8dbe 86aa c23b
000001c0: f891 a33d fb4f a1bd 3628 613c a2d9 923d
000001d0: e981 55be 658b 09be 448d 2c3e e983 363e
000001e0: 2c99 163e dfd7 f8bc a0b7 c93e cea9 f23d
000001f0: 35ba 573d 3720 543e 6c70 10bd 9673 82bd
00000200: ae5c 9e3c 830c 97bd febf 2e3e 33a6 9b3c
00000210: 4576 b5bc 384e ef3d 03e8 1bbd e056 7fbe
00000220: d0cb 333e 1eed 813e aefb 37be 8bdf ba3d
00000230: 6ecf b13c ce15 f03c d821 acbd cc84 273e
00000240: f3a4 70be 3f38 cb3a 0026 19be 3b3d 9abd
00000250: 2a1b 0cbd 7ccf e3bd 70f7 333e 2a3b 28bd
00000260: 8d2a b13e 9a74 27be 2d47 423e 5c90 8f3d
00000270: 8fcc e63d 9127 2abe 7b55 e23d 8b9b bb3d
00000280: 7928 50be f240 0a3d 92d8 ab3c a4a2 90bd
00000290: 9157 333c 1e85 673e dcae 87bd a530 e73d
000002a0: f5e3 173f ba2d c3bd 219e 8d3d d1e5 adbd
000002b0: 0f9c 383e 845f 503d 5a85 9ebc 5b57 933d
000002c0: 372b c2bd ea6f fb3d c0e9 2abe 0571 1a3e
000002d0: 4b33 d9bc aa53 81bd 6d87 8d3d 2cef 183d
000002e0: c91d 1d3e af3f cbbd 1f82 00bd 484b 053e
000002f0: 03eb 1cbe b739 0f3e c07d 923e b0d8 7ebd
00000300: c347 93bd db39 7abe e8bf 97bd 5569 8a3d
00000310: 4f66 99bd cffa 283e 6ef3 59be 659d b93d
-0.08671434 0.048302475 0.009043124 -0.15786645 -0.2837088 0.199896 -0.01664294 -0.05940997
0.11545056 0.06830327 -0.14435607 -0.026503103 0.18254416 0.237634 0.05526987 -0.10481613
0.21271057 0.039986387 -0.23000729 0.10229719 0.030532556 -0.10196758 0.030757485 -0.056422703
-0.13381352 0.14654896 0.25164855 0.102962226 0.02397661 -0.16722555 0.15187544 0.15046848
0.0011173773 0.005426211 0.03171982 -0.015712546 0.24989414 0.11439961 -0.01585247 -0.15873362
0.13417535 0.009433492 -0.029115602 0.31704882 0.19133326 0.0037289409 0.06333397 -0.2914436
-0.081650406 -0.05102913 -0.0391128 -0.04288816 0.038580872 0.10583009 0.05878739 -0.08867139
-0.051076688 -0.008515408 -0.0063285744 -0.0937349 0.053717777 0.28193483 -0.12128417 0.10932153
-0.14319369 0.31124565 0.0070134206 0.13884453 0.013852478 -0.12141467 0.056076802 -0.062443275
0.06669132 -0.24388246 0.034823477 0.17877735 -0.124502085 0.075909436 0.07413245 0.13098723
-0.055013116 0.12277515 -0.3599071 0.058314152 0.15464394 -0.08003004 0.075655155 0.039730776
-0.037161894 -0.24839437 -0.030464798 -0.006969157 0.24034928 -0.12468023 -0.014044116 -0.113004036
0.1625075 -0.03589943 -0.10125599 0.30659732 -0.12912919 -0.085311346 -0.10324086 0.08575437
0.06586404 0.028607722 0.034884304 0.10590828 -0.008374907 -0.10902837 -0.27639282 0.005940738
0.07986826 -0.07876583 0.013742497 0.071704164 -0.20850338 -0.13432081 0.16850764 0.17823757
0.14706868 -0.030376373 0.39397907 0.11848794 0.052667815 0.20715414 -0.035263464 -0.063697025
0.019331302 -0.07375433 0.17065427 0.019000148 -0.022151122 0.11684841 -0.03806306 -0.24935484
0.17558217 0.2537622 -0.17967102 0.09124669 0.021705355 0.029307272 -0.08404893 0.16359252
-0.23500423 0.0015504434 -0.14955902 -0.0753121 -0.034205593 -0.11123559 0.17574859 -0.04107205
0.34602776 -0.16353074 0.18972464 0.07009956 0.11269485 -0.16616656 0.1105146 0.09160527
-0.20327939 0.033753343 0.020977292 -0.07062271 0.01094617 0.22609374 -0.06625149 0.11288575
0.5933221 -0.09530206 0.06914926 -0.084910996 0.18028282 0.05087234 -0.019350696 0.07194396
-0.09480899 0.12277205 -0.16690731 0.15082176 -0.026513716 -0.06314786 0.06910596 0.037337467
0.15343393 -0.09924256 -0.031374093 0.13016999 -0.15324025 0.1398686 0.28611565 -0.062218368
-0.07191422 -0.24436133 -0.0740965 0.06758372 -0.07490217 0.16501926 -0.21284267 0.09063224

output.weight f4 [10, 200]
00000000: c233 603c 9740 f93c 8273 513d 0f1f cd3b
00000010: 853a a0bd ae8a 133d 5037 3fbd 33e9 66be
00000020: b913 1abe f3ee e03d 7533 8bbd 1f9c 9abd
00000030: 6aac 0c3e 35d8 1c3e 3d7c 393d cf3b b7be
00000040: 07d9 a3be e6ec 0ebd 94fd d7bd c329 2bbd
00000050: 482d 823d 39e9 6fbd 21b0 053d bb78 1d3d
00000060: 1707 f5bd 80ab 163e b3bb 47be 2f0d 5b3d
00000070: 923f 88be b8aa bbbd 76d1 d13d be53 b93d
00000080: 8186 e4bd 945e afbd 73df b53c 1d81 943d
00000090: 2dbc 9b3d f280 c13d 905a 21bd 0302 84be
000000a0: 6a31 093e d771 8b3d 1b15 ca3d 3550 dbbe
000000b0: c56f 1c3e 56b6 bf3e 4835 ff3d 27dc 66bd
000000c0: 60df ccbd 8425 e93d 4adc 8cbd a02e dbbd
000000d0: f904 463e 9d27 343d 69f7 883a d477 ffbd
000000e0: d52e 75be d65e abbd 1744 dbbe 20f8 f9bd
000000f0: 66b7 55bd 14e7 4f3e 6743 75be 6b64 b93d
00000100: 0d99 443e 01fb c13d 4369 623d 3eb8 803d
00000110: 26ce 10be 4d51 893d 3c9b dfbd 1bfb 043c
00000120: 8dc1 923c 6bea debd add6 31bd 0ca0 fd3c
00000130: a8fe a43c ea51 e43d 66db 063e 3ff2 a33d
00000140: 0a43 753d 9592 81bc 349d 70be 16c1 cb3b
00000150: 1e34 153e 50db 363c 7652 3e3d 2edf 5ebc
00000160: 64a2 3cbe af9c b0be c295 23bd 8441 c43d
00000170: 57bd 073e 2c4f b4bd 4e89 3fbc 8f37 89be
00000180: 29fa d63d 9b79 23be c4f8 5bbe a9e8 613e
00000190: 9abb 0bbd 15ff a63c 5895 7ebe 2bc9 43bd
000001a0: de91 d13d 3909 a33d 7c25 013e 3bcf d03d
000001b0: 73c9 ffbc 2065 f73d efb1 9d3d 30d0 b3bd
000001c0: b808 153e 9f0c a7be 6bf4 613d 686c 80bd
000001d0: f0a1 2dbe b7cf 303e b054 8cbe 0bb9 e13d
000001e0: ed1d c23d 45a9 9b3d 0363 acbe 08e9 063d
000001f0: 604e 87bd 7435 13bf 2c3f 583d 5971 97bc
00000200: 4d73 af3d 180d d1bb af17 33be 8f08 79be
00000210: 15cf c7bd cc4b 69be e31e 0abe 164a 04be
00000220: 5bcf c73d ecba 4abe bf1e 3fbe 65ad 1dbe
00000230: 2919 f23c f898 0c3e c3b1 48be 2e3f a03d
00000240: 25a8 4ebd e8be 6c3a 75c5 87bb 083c ba3b
00000250: fe83 76be 7689 9a3d 5cc8 133d b50d 7cbe
00000260: f94c 55be 4217 12be 68a5 643d ed50 603d
00000270: 4e8a 853d 6caf 463d 6c29 a0bb 61e1 b43d
00000280: 326e 54bd 12fc c03d aaea 043d ad54 07be
00000290: eaac 2ebe 533f c4ba 5bf2 00be 4516 7b3d
000002a0: 002e 9abe b46b 86be 4825 c83d cc0d 0abe
000002b0: 9af8 353e 7541 5bbe 1cc6 adbb 177b c3be
000002c0: 3c1a 813d aede 323d fc8d 3cbe 9c9b 1ebe
000002d0: d5ac 97bc fe99 d9bd 8864 05be 4a3e 12be
000002e0: 9869 69be a3f7 edbd b408 803c 5fb4 e9bd
000002f0: 920f 38be 59d9 823d 48d0 6c3e a923 943d
00000300: ae7a 07bd 9b4c f93c d509 1cbc cbd7 9d3b
00000310: 65bc 59be 30b8 d73d 2f18 2ebe 4f95 1ebe
00000320: b711 24be 76e8 02bb e870 19be 5c31 003e
00000330: 2beb ff3d 169a 87be f1d0 ef3c cbb0 5e3e
00000340: 7a74 c1be 439a 873d 5bc2 123d e064 c73d
00000350: dffd 3ebe 7289 ccbc 155a a5bd 2aac 6c3d
00000360: 7d72 7fbd 553a 72bd 85af a6bc 7b3a e0bd
00000370: c4f0 ec3d 5ea5 6a3d cfd5 ec3d 82dd d53e
00000380: 8b07 103d 0226 8e3d a689 acbe 8daf 49be
00000390: 8f0b a73e 7d61 de3e 3e12 e2bd 9d24 b33c
000003a0: 8dc7 eb3d 8dfc 103d 36fb b43d bb47 91bd
000003b0: cb2a c83e 3f37 193d b917 583d 54a9 603d
000003c0: 3ff4 8fbe 6696 18be b6d8 783c e181 12be
000003d0: ad70 e03e 4c1e 4ebe cf7b 9cbd c427 3f3e
000003e0: 6253 05bd 2980 13bd 018a f6bd 16a6 c83d
000003f0: cd61 9cbe 336a 033e 4a2d c23d 8008 e9bd
0.013684215 0.030426307 0.051135547 0.006259806 -0.07823662 0.036020927 -0.04668361 -0.22549896
-0.15046586 0.10983076 -0.06796924 -0.07549309 0.13737646 0.15316851 0.0452845 -0.35787818
-0.32001516 -0.034893893 -0.10546413 -0.041787874 0.06356293 -0.058572028 0.032638673 0.038445216
-0.11964243 0.1471386 -0.19505195 0.05347937 -0.26611 -0.091634214 0.1024503 0.09049176
-0.11158467 -0.08562961 0.022201275 0.07251189 0.07604251 0.094484225 -0.039393008 -0.25782785
0.13397756 0.068088226 0.09867307 -0.4283463 0.15277012 0.374438 0.124613345 -0.056362297
-0.10003543 0.11384109 -0.06877954 -0.107022524 0.19337834 0.04398309 0.001044971 -0.12474027
-0.23943646 -0.08367698 -0.42825386 -0.12205529 -0.052176856 0.20302993 -0.23951493 0.09052356
0.19199009 0.09471703 0.055276167 0.062851414 -0.1414114 0.0670496 -0.109182805 0.008116509
0.017914558 -0.108845554 -0.04341762 0.030960105 0.02014096 0.11148436 0.13169631 0.08005189
0.059878387 -0.015816966 -0.23497468 0.006218086 0.14570662 0.011160687 0.04646536 -0.013603015
-0.18421322 -0.3449454 -0.039937742 0.095828086 0.13255821 -0.08804163 -0.011690451 -0.268002
0.10496933 -0.15964358 -0.21481615 0.22061409 -0.034114458 0.020385304 -0.24861658 -0.04779927
0.102329 0.079607435 0.12611955 0.10195776 -0.031223988 0.12079835 0.07699954 -0.08779943
0.14554107 -0.32626817 0.055164736 -0.06270677 -0.16956306 0.17266737 -0.2740836 0.11021622
0.09478364 0.07600645 -0.3366929 0.03293708 -0.06606746 -0.5750344 0.05279462 -0.018486666
0.08566914 -0.0063797347 -0.17489503 -0.24319671 -0.09756295 -0.2278282 -0.13488345 -0.12918887
0.09756347 -0.19797868 -0.18664072 -0.15398176 0.029553013 0.13730228 -0.1959906 0.078245506
-0.050453324 0.0009031133 -0.0041434118 0.005683426 -0.24073789 0.0754575 0.03607975 -0.24614604
-0.20830144 -0.14266685 0.055821806 0.054764677 0.0652052 0.04850714 -0.0048877504 0.0883205
-0.051862903 0.094230786 0.032450356 -0.13215895 -0.17058149 -0.0014972485 -0.12592451 0.061300535
-0.3011322 -0.26254046 0.09772736 -0.13481826 0.17770615 -0.21411689 -0.0053031575 -0.38179848
0.06303832 0.043669395 -0.18413538 -0.15489048 -0.01851503 -0.10625075 -0.13026631 -0.14281574
-0.22794187 -0.116194986 0.01562915 -0.11411356 -0.1797469 0.06389112 0.23126328 0.07233364
-0.03307598 0.030432036 -0.0095238285 0.0048169843 -0.21263273 0.10533178 -0.17001413 -0.15486644
-0.16022383 -0.0019974983 -0.14984477 0.12518829 0.124960266 -0.26484746 0.029274436 0.21747129
-0.37784177 0.0662122 0.035829883 0.09736037 -0.18651532 -0.024967883 -0.080738224 0.057781376
-0.062365044 -0.05913766 -0.020347366 -0.10948654 0.1156936 0.057286613 0.11564218 0.4177056
0.035163444 0.06940843 -0.33698767 -0.19695874 0.32626006 0.43433753 -0.11038636 0.021868045
0.11512671 0.0353971 0.08836977 -0.070937596 0.39095148 0.037406202 0.052757 0.054848984
-0.28116032 -0.14901122 0.015188387 -0.14307357 0.43835965 -0.20128745 -0.07640802 0.18667513
-0.032550223 -0.036010895 -0.12038041 0.097973034 -0.30543366 0.1283348 0.094812945 -0.11378574

output.bias f4 [10]
00000000: 64e0 fd3d 0c73 b7bc 8d2d 2bbd 5679 fbbd
00000010: 6b91 2bbc 1621 bf3d 3ed0 23be ef58 80bd
00000020: e87b ccbd 2bb3 ae3c
0.12396315 -0.022393726 -0.041791487 -0.12279002 -0.010471682 0.093324825 -0.15997407 -0.06266963
-0.09984571 0.021325668
